models/pytorch_model_20251229_175710.pt (torch, 68579 bytes, 19 tensors)

model.0.weight f4 [128, 29]
00000000: f79c 63bd 77c1 9fbd 6f0a 923a 9250 2eba
00000010: a56d 8a3d c5d8 d6bd 75d9 45be 1e25 1ebe
00000020: b643 803c 8050 553d 50f8 80bc edc6 2f3d
00000030: 5cf4 97bd f7e9 ba3c a168 78bf 8da6 0fbd
00000040: 2a72 353d 4bdc b23b 1d8f 9b3d 3e5b d93c
00000050: 993f 2ebb 55a6 e1bc 521f bf3c 9568 bbbd
00000060: d018 44bf 9627 8bbd f601 4e3d 7a0d 873c
00000070: b94b 013e 0f78 c4bc f845 6e3d eae1 663d
00000080: 3938 043d 66e8 a23c fe28 20bd df21 82bd
00000090: 7bc8 e73d 1180 7d3d da98 dc3c 84af 0b3e
000000a0: 7eeb edbd 3a6f eb3d b16b f7bc dbad 2dbf
000000b0: 73fe 89bd c858 9fbd 2e0f 04bf 537b 96bd
000000c0: dcc4 ae3c 138e 2dbc d5c7 673d 351e 9a3c
000000d0: a2fa adbd 0dc9 04bf 8968 d13d 5d45 be3c
000000e0: 0753 d63b c5f7 59bd c942 afbb a5a9 253c
000000f0: 2462 143d e88a ccbd 6b73 3dbc 7c5d fdbe
00000100: 146e ca3e 96c2 b2bb 9bff 9dbd bfcb 97bd
00000110: 846b 1d3c 4988 0b3e da30 e3bc 2d4d 523d
00000120: d056 65bc d5a4 d83d bd8d 893c 8c2b b3bd
00000130: 5800 8b3d e3a4 3c3d 95d1 933c a006 3a3c
00000140: e3d3 e2bc f478 893e e18f 493e c5a0 ebbd
00000150: cabd ebbd 83e4 843b ae46 493d ba6b 2b3d
00000160: 502a 0e3d a035 85bd 77f5 17ba aa32 97bb
00000170: b539 803e 557f 983f 1c02 d63d e76c 87bc
00000180: 2248 fe3c 1bd9 19bc f349 e23c f108 393d
00000190: 2f87 52bc 9a61 0cbd 5be9 a5bb c897 c93c
000001a0: dae6 dd3c 2d4e a0bc 3a74 d03c 688e d03b
000001b0: cdd7 a33d ce53 8bbd f13e 0cbd b252 a03a
000001c0: 0a75 543d 4955 003d c62f 98bd d29f ae3c
000001d0: dc0c 60bd f855 d03c 97f3 b6bc 157f ac3d
000001e0: 8249 fcbc ce53 843d 1973 e9bc 5077 183b
000001f0: 1e77 e5bc 8674 053e a795 abbd 22fe 453e
00000200: 6d5e cdbc f639 763d 1d33 b83d 794a a63c
00000210: 3817 2dbe 4edc 39bd 6bf6 14be 605d 82bd
00000220: 36cd 7abc c640 6c3d 7fc1 06be f317 913c
00000230: 8d5b 95bf 694d 4a3e 4b38 7ebd 8aec 103d
00000240: b7fb 543d f4b9 f2bd b666 aa3d 65e2 303d
00000250: e91b 193e 1be3 3d3e aca1 9a3d 07f5 6fbd
00000260: 2734 cc3d a3fb 343e 9208 0d3d 676b 2d3e
00000270: 305a e4be 7e6e 383e edbf fc3d 3fbc 943d
00000280: ccaf d3bc e610 0a3d 8d46 0f3e cc42 a1bc
00000290: 3e78 443d a2f7 ed3d 29bf 153d 7da5 a13c
000002a0: e83f 88be d7ad 6a3e cda5 4ebe c26c 893d
000002b0: 2c80 f83d 3d1b 753e ed7b 4a3e 13e5 4b3d
000002c0: 90a1 f13d 2f21 d8bc e475 6d3e 6417 7e3d
000002d0: e695 9abd 2704 2cbe 3aff 283d e3e0 353c
000002e0: a83d 483c 9226 2f3d 687c 843d 2999 0e3e
000002f0: 7587 dfb9 d83d 823d fae9 743c fb1d fa3c
00000300: f45b 74bd 4c69 673d 8308 acbd 8df2 cd3d
00000310: 1631 3abe 2f37 95bd 01d8 6abf d53d 33bc
00000320: f3e5 8dbd 7a3c 273e 8cd2 90bd 4a03 203d
00000330: de7f e63c 9318 4bbe 742e 92bd 7be6 163e
00000340: 48f1 d7bd 5a16 89bd e1ac 3d3d 8d2f 0cbd
00000350: 3525 2ebe 4d40 29bd c280 3abe 023e 46bd
00000360: be6f 36bd ebf9 173e 62bb 03bd 5f4a 2bbe
00000370: dcb2 203e 8271 0f3e 90b4 023e d805 92be
00000380: 61a3 b43d bfd6 a53d 6bcf 163e 38e8 133e
00000390: c084 6e3b 5ed3 153e 1985 f6bd 9a0b 5c3e
000003a0: 2862 f73d 104e 6d3d 05e1 99bd 2c34 42b8
000003b0: 65d5 c03d d945 26be a444 7f3d df7e b4bd
000003c0: 448b 043e a289 cb3c 07bb 4abe a701 fd3d
000003d0: e3b2 3fbd 2349 41be bd61 5c3c c2ce 813d
000003e0: 812b c3bc 4afc 19be 1422 283c 7b09 5ebd
000003f0: 14fb 04be c427 2dbc 8ed2 cfbd 1131 bcbe
-0.055569615 -0.07800572 0.0011142025 -0.0006649579 0.06759194 -0.10490564 -0.19321235 -0.15443847
0.015657287 0.052078724 -0.015743405 0.04291432 -0.07419655 0.022816641 -0.9703465 -0.035070945
0.04429833 0.00545839 0.07595656 0.026532765 -0.00265882 -0.027545134 0.023330364 -0.09150807
-0.7660036 -0.0679466 0.05029484 0.016485918 0.12626542 -0.02398303 0.058172196 0.056367792
0.03228018 0.019886207 -0.039101593 -0.06354117 0.113175355 0.06188971 0.026928354 0.13641173
-0.11617182 0.11495824 -0.030202718 -0.6784341 -0.067379855 -0.077806056 -0.5158566 -0.07347741
0.021334104 -0.010592955 0.05658706 0.018813232 -0.0849507 -0.5186928 0.102250166 0.023226434
0.0065406593 -0.053214807 -0.0053485376 0.010111247 0.036226407 -0.09987432 -0.011563162 -0.49485385
0.39537108 -0.0054553254 -0.077147685 -0.07411908 0.009608153 0.13626207 -0.027733255 0.05134313
-0.0139977485 0.10578314 0.016791219 -0.0874854 0.06787175 0.046055686 0.018044272 0.011354119
-0.027688926 0.26850092 0.19683792 -0.11505274 -0.11510809 0.004055561 0.04913967 0.041850783
0.03470832 -0.06504369 -0.000579677 -0.004614194 0.25044027 1.1913859 0.10449621 -0.01653142
0.031040255 -0.009390141 0.027623152 0.045174543 -0.012849613 -0.034272768 -0.0050632185 0.024608508
0.027087618 -0.019568527 0.025446046 0.0063646324 0.08000145 -0.06803094 -0.034239713 0.0012231676
0.05186943 0.031331334 -0.07430987 0.021316443 -0.054699764 0.025431618 -0.02233295 0.084226765
-0.03079677 0.06461297 -0.028497266 0.0023264475 -0.028010901 0.13032731 -0.08378153 0.19335225
-0.02506944 0.06011387 0.08994124 0.020299183 -0.16903389 -0.045376115 -0.14547126 -0.06365466
-0.015307715 0.05767896 -0.1315975 0.017711615 -1.1668564 0.19756092 -0.062065404 0.03538183
0.051997866 -0.11851874 0.08320372 0.043184657 0.14952053 0.18543665 0.07550368 -0.058583286
0.09970885 0.17674117 0.034432 0.16935502 -0.44600058 0.180109 0.123412944 0.072624676
-0.025840662 0.03370752 0.13991757 -0.019685172 0.047966234 0.11619498 0.036559258 0.019732231
-0.26611257 0.22917877 -0.20180435 0.06710197 0.12133822 0.23936172 0.19773836 0.04977901
0.11798394 -0.02638301 0.23189503 0.062034026 -0.07548122 -0.16798459 0.041259028 0.01110098
0.012221731 0.042761393 0.06469041 0.13925613 -0.00042634798 0.06359452 0.0149483625 0.030531874
-0.059658006 0.056496903 -0.08400061 0.100560285 -0.18182787 -0.07285916 -0.91735846 -0.010940035
-0.06928625 0.16331664 -0.07071409 0.039065637 0.028137144 -0.19833593 -0.071377665 0.14736359
-0.105440676 -0.06693716 0.04630745 -0.034225035 -0.17006381 -0.041321088 -0.1821318 -0.04839898
-0.04454016 0.1484143 -0.032161124 -0.16727589 0.1569323 0.14008144 0.12764192 -0.28520083
0.088202246 0.080976 0.14727561 0.14444053 0.0036395043 0.14631411 -0.12037105 0.214888
0.12079269 0.057935774 -0.07513622 -4.6301793e-05 0.09415702 -0.16237582 0.06232132 -0.08813261
0.1294375 0.024845902 -0.19797908 0.12353831 -0.04680146 -0.18875556 0.013451037 0.06338264
-0.023824455 -0.15037647 0.010262031 -0.05420826 -0.12986404 -0.010568563 -0.10147582 -0.36756185

model.0.bias f4 [128]
00000000: 1acb 57b8 c1a6 9fb7 2ad3 f136 3018 a635
00000010: 808e c437 5282 5537 2b72 4c37 f9c3 b9b6
00000020: 53de 0bb6 d3c5 0db6 69d0 a6b6 e7ad a6b7
00000030: ed88 9e35 e142 8f37 f87e 02b8 2ed8 f4b5
00000040: 06e2 6336 7491 5c36 ac3f ec36 6a6b 0bb7
00000050: a729 b937 ff0a 9ab7 ee45 01b7 7c7e ca36
00000060: 1871 0437 642b 8ab7 e879 d0b5 f853 ce36
00000070: 620c 6eb7 04da 4237 07d4 5eb7 ecb5 e035
00000080: a781 45b7 881f 82b7 aa3f 13b6 c4e7 8337
00000090: 334c c536 fbab 0037 cadc 8537 d320 0637
000000a0: 1fa3 9f36 0d09 9ab7 26a8 b436 b871 dc36
000000b0: 8f40 9e36 0e89 3ab6 6ce9 0e37 68dc 9a36
000000c0: c860 43b6 846a 4f37 d1c1 4eb7 ff5e b9b5
000000d0: 1293 3cb7 a645 2137 4881 56b6 18aa 9ab6
000000e0: f3b2 4db7 cd55 1838 62b6 ccb6 c70c 0537
000000f0: 5880 9136 44eb 33b7 c00a 0a37 ecd3 88b7
00000100: 87d0 9537 03e9 63b6 2842 feb6 d07a 43b5
00000110: 9828 f236 c2e8 0236 40a6 19b7 4913 a8b7
00000120: 86b2 0637 e029 ab35 7ce4 c636 00fa b135
00000130: 716f 3937 844e a637 8f7f 9e37 d01a 0135
00000140: 78fb 6337 12b9 d3b6 8912 b437 0b42 8237
00000150: f6b4 82b7 56d5 a837 7a60 a636 1afa 42b6
00000160: 7c42 d9b5 9666 c3b7 568f d0b6 d095 ccb4
00000170: 2d2a 02b7 b4d2 5ab7 741c 6337 95e6 0536
00000180: c07c 8437 3047 9536 150d b2b7 7622 63b6
00000190: d481 1d36 a56e ddb7 ed98 7b37 08ed 11b7
000001a0: 93e7 bfb7 9fd4 d336 3a61 da35 bc0b 5136
000001b0: 08b8 c236 b0d9 2d37 50f4 51b7 64d7 7b37
000001c0: 6061 9b36 fe68 bf36 dc67 1ab6 e6af 2037
000001d0: 3964 0cb7 88fa 8bb7 70b5 a9b6 0abd 3337
000001e0: 65a6 c036 7c18 8d36 4818 a8b7 caa8 15b7
000001f0: 4ad6 3db7 5626 4437 baa6 4437 34cd e136
-5.1449148e-05 -1.9031928e-05 7.2069424e-06 1.2375003e-06 2.3431377e-05 1.2726132e-05 1.2185929e-05 -5.536244e-06
-2.0842024e-06 -2.1125786e-06 -4.9714477e-06 -1.9869722e-05 1.1811768e-06 1.7078071e-05 -3.1112664e-05 -1.8242333e-06
3.39572e-06 3.286722e-06 7.0407605e-06 -8.310055e-06 2.2073114e-05 -1.8363351e-05 -7.705281e-06 6.034794e-06
7.894145e-06 -1.6471087e-05 -1.5532687e-06 6.1490537e-06 -1.4188789e-05 1.1614062e-05 -1.3281598e-05 1.6742247e-06
-1.1772302e-05 -1.551189e-05 -2.1941764e-06 1.5724341e-05 5.8799283e-06 7.669437e-06 1.5957648e-05 7.994665e-06
4.757559e-06 -1.8362445e-05 5.383993e-06 6.5697495e-06 4.7162825e-06 -2.7795936e-06 8.518207e-06 4.6152163e-06
-2.9113598e-06 1.2362962e-05 -1.2323683e-05 -1.3811222e-06 -1.1239916e-05 9.612564e-06 -3.1963737e-06 -4.609359e-06
-1.2260617e-05 3.6319532e-05 -6.100906e-06 7.930393e-06 4.336278e-06 -1.07240085e-05 8.227944e-06 -1.6311147e-05
1.7859287e-05 -3.3961267e-06 -7.5774915e-06 -7.2821877e-07 7.2168878e-06 1.9506992e-06 -9.158219e-06 -2.0036141e-05
8.028588e-06 1.275268e-06 5.927459e-06 1.3260287e-06 1.1052806e-05 1.9825304e-05 1.8894467e-05 4.809526e-07
1.3588804e-05 -6.309835e-06 2.1466303e-05 1.5527961e-05 -1.5581474e-05 2.0126503e-05 4.958417e-06 -2.905383e-06
-1.6187109e-06 -2.3293582e-05 -6.2155696e-06 -3.8106964e-07 -7.758424e-06 -1.3042871e-05 1.3536879e-05 1.995276e-06
1.5793717e-05 4.4488334e-06 -2.1225345e-05 -3.3845695e-06 2.3470393e-06 -2.6396776e-05 1.4996372e-05 -8.697862e-06
-2.287681e-05 6.3130424e-06 1.6270562e-06 3.1150257e-06 5.8030746e-06 1.0362288e-05 -1.2514254e-05 1.5010915e-05
4.630696e-06 5.7044663e-06 -2.3008242e-06 9.577698e-06 -8.367985e-06 -1.6686754e-05 -5.0577146e-06 1.07132455e-05
5.7414168e-06 4.204978e-06 -2.0038467e-05 -8.920391e-06 -1.1315171e-05 1.1691436e-05 1.1721329e-05 6.7294113e-06

model.1.weight f4 [128]
00000000: a364 793f 2f51 513f 0590 363f 8fae 433f
00000010: 0dfb 5c3f 8ab4 3b3f 14f5 4c3f da6c ee3e
00000020: 49f5 163f 00a4 013f fbc0 5c3f 838f 663f
00000030: 17de 4c3f 4776 543f af8c 273f a94b 3b3f
00000040: 6aca 283f fe7d 193f 7ac2 263f 08b2 1c3f
00000050: 55f2 603f 3880 413f 8f61 1b3f 8937 0d3f
00000060: bd8a 853f 1b31 393f 8b19 473f 9d6b 4b3f
00000070: acf7 573f 0e75 653f f47a 243f 5242 2b3f
00000080: 9175 533f b873 1f3f f9e1 283f 0d9f 2d3f
00000090: 00d5 383f 2782 013f 5c1d 2f3f 0744 353f
000000a0: 8a60 203f fb07 693f 1718 473f b93d 163f
000000b0: 43da 413f 1bbb 2f3f ecdd 493f 8fce 363f
000000c0: 0943 473f e3b4 263f 4145 523f 1c67 1b3f
000000d0: 0c8e 333f a0b8 4c3f d58a 613f 4cee 5f3f
000000e0: f4bb 2b3f 3886 453f fa58 443f 4208 6e3f
000000f0: a8e5 1c3f 8876 373f fe7c 203f 0303 0f3f
00000100: 0ab8 8b3f f047 2b3f 8b3a 4f3f be04 fe3e
00000110: b1ed 283f ac02 573f c182 693f 19b7 523f
00000120: 57db 1b3f 0e50 0a3f 371a 2f3f 3793 3f3f
00000130: 7ba8 4b3f e9ee 353f 8181 4f3f 3c1b 3a3f
00000140: 062c 333f 5c95 513f 2047 4a3f 50c6 473f
00000150: a027 673f c829 693f 6a97 553f 145f 4d3f
00000160: 2860 4a3f d8d0 433f 39e9 293f 3999 883f
00000170: 4c27 243f bea8 383f bda4 5a3f 3401 413f
00000180: 53c3 603f d57b 4c3f 6b17 463f 5214 6f3f
00000190: 2ab1 803f f381 5f3f beb2 073f 383a 083f
000001a0: 885a 193f 055a 153f a470 513f 3ab0 4b3f
000001b0: 01e3 363f a9e6 6d3f 992c 613f c392 353f
000001c0: 90ac 503f e170 7c3f d398 323f b56e 2f3f
000001d0: d5e6 163f 9fa3 253f 4bc4 233f 0f28 4e3f
000001e0: 9544 203f 7b15 403f be5e 553f 6753 283f
000001f0: 3bb2 4e3f e5f9 6d3f 79b7 683f 9ce0 343f
0.97419184 0.817645 0.71313506 0.7643823 0.86320573 0.73322356 0.8006146 0.46567422
0.58968025 0.5064087 0.86231965 0.9006273 0.8002638 0.82992977 0.6544904 0.73162323
0.6593386 0.59957874 0.651405 0.61209154 0.8786977 0.7558627 0.6069574 0.55162865
1.0432965 0.72340554 0.7777335 0.7946108 0.8436229 0.89631736 0.6425011 0.6689807
0.8260127 0.6228595 0.65969807 0.6782082 0.7220001 0.5058922 0.68404174 0.70806926
0.62647307 0.910278 0.77771133 0.5868793 0.75723666 0.68644875 0.7885425 0.71408933
0.7783666 0.6511976 0.82136923 0.6070421 0.7013862 0.79969215 0.88102466 0.8747299
0.6708367 0.77157927 0.7669827 0.9298135 0.6128793 0.7166524 0.6269072 0.5586397
1.0915539 0.6690664 0.80948704 0.49612993 0.6598769 0.8398845 0.9121514 0.82310635
0.6088156 0.54028404 0.68399376 0.7483401 0.79553956 0.7106767 0.8105698 0.72697806
0.6998905 0.8186853 0.7901478 0.78036976 0.9029484 0.9107938 0.83434165 0.802232
0.7905297 0.76490545 0.66371495 1.067176 0.6412246 0.7213248 0.8540762 0.7539246
0.8779804 0.7987645 0.77379483 0.9339038 1.0054066 0.8730766 0.53007114 0.53213835
0.59903765 0.58340484 0.818125 0.79565775 0.7144013 0.92930084 0.87958676 0.70927066
0.8151331 0.9860974 0.6976444 0.685283 0.5894597 0.6470279 0.63971394 0.80529875
0.6260465 0.75032777 0.8334769 0.6575226 0.8074071 0.92959434 0.9090496 0.70655227

model.1.bias f4 [128]
00000000: 8bcf efbd e3a7 51be 6513 c6be eb33 34bf
00000010: 4e33 e7bc 46d8 87be 72a6 d7bd 7064 ebbe
00000020: 3039 24be 8ee2 5ebe f245 15be cefc 91be
00000030: f3bf 70be 65b2 1fbe aed5 6cbd 5f95 1ebe
00000040: 64f1 18bf 59c6 5bbe f1af cebe e966 5abe
00000050: f979 65bd 6f1d 14bf 51bf 97be da96 20be
00000060: 2e37 a2be 8285 08bf f830 30bf 4923 9ebe
00000070: f959 26be 4499 6abe d25a 61be 8fa1 f3be
00000080: 6ae0 a3be d28f ffbe 02f9 34be a008 a9be
00000090: f044 35be 701a e5bc eba4 0fbf a794 24be
000000a0: 94c3 02bf ce7c 5cbe 5cb3 0ebe 7391 d1be
000000b0: 4ccf 3cbe fe62 c9be 4343 edbd 6e8d 0dbf
000000c0: e81d d0be 4769 04bf 1e1a 67be ca9c 00be
000000d0: f512 c1bd 92dd aabd fb1b 0cbd 1051 5abe
000000e0: 9572 f4be 257e 33bf 16b8 6cbd 2b9b 2bbe
000000f0: a084 98be dbe2 ffbe 3b94 78be a1d1 cbbe
00000100: 08ed b1bc 4462 c6be ab89 3abe 70a8 03bf
00000110: 1371 10bf 3f87 5abf 44e8 36be ca3a e8bd
00000120: c7ca 54be fdff cdbd 1920 22bf b5dc 69be
00000130: a452 11be b1ca d7be 4404 50be 527b 01be
00000140: 5611 1fbf ab4c 69be 15cb 4dbd 2f38 3dbe
00000150: 0e9a c0be 5e5d 16be 7e72 75be 5ff1 06be
00000160: c154 12bf aa91 2cbf 2973 93be 72b9 37be
00000170: a73c b5be 1f3f 93be 5418 debd 96da 2cbe
00000180: dfc5 cdbe 9c63 81be c55f a9be 1854 12be
00000190: f774 8fbe 28bf 0abe b98d b0be 4d19 a1be
000001a0: eea4 43be 72fd 07be b1a8 f0bd 4aa6 2fbe
000001b0: 480e 7fbd 8a0f 3dbe 20d3 41be 1252 e4be
000001c0: a05b d5bd f7de 1cbe 7e7e 0abf a4f9 c4be
000001d0: 5247 92be 347d abbe 400a 80be 8330 fbbe
000001e0: 2666 0fbf 9de7 bfbe 13ce 2dbe f3e7 edbe
000001f0: c2ca 6ebe 8e79 12be c266 9abe efb7 20be
-0.117095076 -0.204742 -0.38686672 -0.7039172 -0.028222706 -0.2653219 -0.10529794 -0.45975065
-0.1603744 -0.21766111 -0.14577463 -0.28513187 -0.23510723 -0.15595396 -0.05782097 -0.15486668
-0.5974333 -0.21462382 -0.40368608 -0.2132832 -0.056024525 -0.5785741 -0.2963815 -0.15682545
-0.31682724 -0.53328717 -0.6882472 -0.30886295 -0.1624526 -0.22910029 -0.22007301 -0.47584197
-0.32007152 -0.49914414 -0.17673114 -0.33014393 -0.17702079 -0.027966708 -0.5611102 -0.16072331
-0.5107968 -0.21531984 -0.13935608 -0.4093128 -0.18438452 -0.39333338 -0.11585095 -0.5529393
-0.40647817 -0.5172314 -0.22568557 -0.1255981 -0.09427444 -0.083430424 -0.03420637 -0.21319985
-0.4774367 -0.70114356 -0.057792746 -0.1675841 -0.29788685 -0.49977764 -0.24275295 -0.39808372
-0.02171947 -0.38746846 -0.18216579 -0.5142889 -0.5642254 -0.8536262 -0.1786204 -0.11339338
-0.20780478 -0.100585915 -0.6333023 -0.228381 -0.14191681 -0.4214683 -0.20314127 -0.12644699
-0.6213583 -0.22783153 -0.050242502 -0.18478464 -0.37617534 -0.14684054 -0.23969457 -0.13178013
-0.57160574 -0.67409766 -0.28798798 -0.17941836 -0.35397837 -0.28759095 -0.10844484 -0.16880259
-0.40190026 -0.25271308 -0.3308088 -0.14289892 -0.28018925 -0.13549483 -0.34483126 -0.31464615
-0.19105884 -0.13280275 -0.11750925 -0.17153278 -0.06226948 -0.18462959 -0.18928194 -0.44593865
-0.10417867 -0.1531943 -0.5409926 -0.3847171 -0.28570038 -0.3349396 -0.2500782 -0.4906045
-0.5601524 -0.37481394 -0.16973142 -0.46466026 -0.23319533 -0.14304182 -0.30156523 -0.15695165

model.1.running_mean f4 [128]
00000000: cb3b 68bc 8d05 30bc 5d5b b93c 89bc 573c
00000010: c41e b6bc 4037 8e3b fce0 b7bc 4c88 a53c
00000020: 92ab 8dbb 2acc e93a a2e7 5cbb 0983 0fbc
00000030: 6f52 e2bb b0f9 0bb9 ccf3 e73b cef1 96bc
00000040: c629 513c 717b 1dbc 8d9c 953b da54 5c3c
00000050: 34a2 93bc 55fc 513c e463 21bc 7032 5ebb
00000060: b5ae 3bbc 9c01 273c feb7 aebc d4ef 5b3c
00000070: dbdd 61bc 0854 92bb 465b fcbb 8992 c43b
00000080: 80ac 8cb8 8848 153a 8196 86bb df78 9bbc
00000090: b094 bdbb d825 d7bc 683a 343c 3cf6 30bc
000000a0: 041a 423c b3d3 3fbc f491 b5ba 4815 633c
000000b0: 0f52 7abc b6b7 f03b 22d7 e8bb c797 af3a
000000c0: 80b8 1f3b 2c94 f33b 42a5 b0bc 6e18 503c
000000d0: 186b cdba d024 9ebc 729a 5ebc 666a aabc
000000e0: 4e1b 9abb e85a 3c3c 755c 2ebc 8e01 b2bb
000000f0: 8ab5 4cbc 50a4 883c e673 d0bb 0164 443c
00000100: 969b bfbc a30b 793c fe90 8fbc 34fa 33bb
00000110: 24b6 fd3b 9220 bc3c a5d3 94bc eb80 b5bc
00000120: 2798 0e3b 0111 10bb 9aa9 803c 603e 153b
00000130: ae0b 70bc 30fc 873c 49f4 81bc 7ea0 c4bb
00000140: ec63 ca3a f79b 35bc 1e79 a6bb 03d5 063b
00000150: 9a12 e5bb 9cc5 fabb 46f5 82bc b82a a63b
00000160: ecc6 703b bbf6 483c 54c6 1cbc 96f4 97bc
00000170: 26a1 0b3a 76e0 0f3c 642f 3abc 8a13 83bb
00000180: 9225 92bb 00e0 f839 8515 813b 5af6 b0bc
00000190: 0f24 5dbc 62e6 3fbc b906 f73b fa65 58bb
000001a0: 24a1 2cbc 6465 c0bb b418 d3bb b1ef 38bb
000001b0: 9abe 51bc a279 23bc ee00 0fbc e98d 0c3b
000001c0: c5cf e63b df82 92bc 8ab3 4abc 65f5 833b
000001d0: de61 383b b4a1 11bb 15af c7bc e505 80bb
000001e0: 9743 a93b ec56 e03c b2d9 c4bb da7b 983a
000001f0: a4b0 21bc e22d 6ebc f94f 94bc 72ea 83bc
-0.014174412 -0.010743511 0.022626573 0.013167509 -0.022231467 0.0043400824 -0.022446148 0.020206593
-0.0043234313 0.0017837335 -0.00337074 -0.008759269 -0.0069067995 -0.00013349089 0.0070786234 -0.018425848
0.012766307 -0.00961195 0.0045657814 0.013447965 -0.01802168 0.012816508 -0.009850476 -0.0033904575
-0.011455228 0.010193255 -0.021327969 0.013423879 -0.013785805 -0.0044655837 -0.0077013103 0.0059989137
-6.707851e-05 0.0005694707 -0.004107297 -0.018978534 -0.005785547 -0.026263162 0.011000253 -0.010800894
0.011847023 -0.011708188 -0.0013852702 0.013860054 -0.015278353 0.007346119 -0.007105724 0.0013396674
0.0024371445 0.007433435 -0.021563176 0.012701137 -0.0015672175 -0.019304663 -0.013586627 -0.020802688
-0.004702962 0.011496283 -0.010642161 -0.0054323142 -0.012494454 0.016679913 -0.0063614724 0.011986733
-0.023389619 0.015200528 -0.017525192 -0.0027462365 0.00774266 0.02296475 -0.018167326 -0.0221562
0.002175817 -0.0021982791 0.015705872 0.0022772774 -0.014651222 0.016599745 -0.015863555 -0.0060005775
0.0015441156 -0.011084548 -0.0050803563 0.0020573742 -0.006990743 -0.0076529514 -0.015986096 0.0050710104
0.003673966 0.012265856 -0.0095687695 -0.018549245 0.0005326442 0.008781543 -0.011363838 -0.004000132
-0.004460045 0.0004746914 0.003939333 -0.021601845 -0.013497367 -0.011712642 0.007538643 -0.0033019767
-0.010536466 -0.0058714617 -0.006442154 -0.002821904 -0.012801791 -0.00997773 -0.008728249 0.002144689
0.007043811 -0.01788467 -0.012371907 0.004027056 0.0028134505 -0.0022221627 -0.024375478 -0.0039069527
0.005165528 0.027385198 -0.0060073966 0.001163359 -0.009868775 -0.0145373065 -0.01810454 -0.016103003

model.1.running_var f4 [128]
00000000: 21eb 1840 f55d 0f40 f197 573f 76d0 b03f
00000010: a20c dd3f 5636 ed3e 09da 993f aead 063f
00000020: eb31 313f b0f5 f73e 7d3c c03f 8cf5 363f
00000030: 9026 b43f f400 d03e b7d2 143f 96c7 a03f
00000040: a544 963f c5f0 763f 7dae 233f 7637 f43e
00000050: 0619 ba3f 97c8 8c3f 115b 143f 383c 1c3f
00000060: 2e56 853f b28a 8c3f 75f1 643f d54d cc3e
00000070: 6b85 a03f c786 1740 5cfc 783f 3180 cf3e
00000080: 82c8 0c3f 1858 113f e280 303f 3ddd 3f3f
00000090: 6c54 243f e87b a13f 5148 9b3f 6a3a ec3f
000000a0: 1b3f 813f c7f2 0740 959a 543f 3349 073f
000000b0: 3053 1440 5d5a c63e 2aef 8e3f 3619 643e
000000c0: 81e0 be3e 2a24 3a3f 90cb 863f f444 0b3f
000000d0: 8555 673f 5727 a53f dc55 e63f ab84 8e3f
000000e0: 2401 273f 594b a93f 2007 6b3f aff4 d13f
000000f0: 39be e93e 14b9 103f 0b96 6a3f b7df 6f3f
00000100: 1ee2 2440 d121 1e3f a625 7b3f b93c 233f
00000110: ac5a 6a3f bd2f e23f 5988 1f40 3521 bb3f
00000120: 875e 013f 4ce5 e13e 1b34 a43f 3a68 0a3f
00000130: 046f 843f da01 813f 4814 e73f d7a9 423f
00000140: 0f2e c73e 413e 723f f080 2d3f 9a67 fa3e
00000150: 3345 9c3f 5352 f63f 5dc5 8c3f c7fc bc3f
00000160: 9efd 993e b9f9 7e3f e1e7 f53e 4d8a 2540
00000170: f445 d13e 932f cd3e 8e74 ab3f cba7 933f
00000180: a632 773f 893e ef3e 2e72 693f 5356 3d40
00000190: 86c0 993f abdd 903f 9a77 813f 4a7e 1b3f
000001a0: 1d8c 763f f234 3c3f 3f89 a93f f704 663f
000001b0: af09 a53f 6267 863f ea29 023f dd46 b73e
000001c0: 9299 5b3f eb32 df3f c1e3 e43e d4f5 fa3e
000001d0: 29df 013f 1615 da3e 0946 7a3f 99b1 093f
000001e0: aa1f e23e c934 8f3f 6d91 a53f fa82 373f
000001f0: e026 9a3f 42af 7f3f 11ee b33f b4de 8b3f
2.3893511 2.2401097 0.8421622 1.3813617 1.726948 0.46330518 1.2019664 0.52608764
0.69216794 0.48429632 1.501846 0.71468425 1.4074268 0.40625727 0.58134025 1.2560909
1.1739699 0.96461135 0.63938123 0.47698563 1.4538887 1.0998715 0.57951456 0.61029387
1.0416925 1.0979826 0.89430934 0.3990313 1.2540716 2.3676012 0.9726007 0.4052749
0.5499345 0.56775045 0.6894666 0.7494696 0.6419132 1.2615938 1.2131444 1.8455327
1.0097383 2.124193 0.83048373 0.5284607 2.3175774 0.38740817 1.1166737 0.22275242
0.37280658 0.7271143 1.0530872 0.5440209 0.9036487 1.290263 1.7994952 1.1134237
0.65236115 1.3226119 0.91807747 1.6402797 0.4565294 0.56532407 0.916352 0.93700737
2.576301 0.6177035 0.9810432 0.6376453 0.91544604 1.7670819 2.492697 1.4619509
0.5053486 0.44120252 1.2828401 0.5406529 1.0346379 1.007869 1.8053064 0.76040405
0.38902327 0.9462624 0.6777487 0.48907167 1.2208618 1.9243873 1.099773 1.4764642
0.30076307 0.99599797 0.48028472 2.5865662 0.40873682 0.4007536 1.3394945 1.1535581
0.9656166 0.46727398 0.9118985 2.9583938 1.2011878 1.1317648 1.0114625 0.60739577
0.96307546 0.7351829 1.3245009 0.89851326 1.289358 1.05003 0.50845206 0.35796252
0.85781205 1.7437414 0.44705012 0.49015677 0.5073114 0.42594212 0.97763115 0.5378662
0.44164783 1.1187984 1.2935005 0.7168423 1.2043114 0.998768 1.4057027 1.0927339

model.4.weight f4 [64, 128]
00000000: 9f3d 3dbe 0d21 85bd 44cb 0b3e 40b8 dd3d
00000010: 51cb 3cbd 2a00 44bd 239e b6bd 32da 803d
00000020: 84f8 3c3d 5c75 863d ef76 fbbd 6c72 d4bd
00000030: aca3 b0bd 7585 973c 03bc b73d e52f 5dbd
00000040: bd06 823d 34c7 b33c db90 213e 0b3c 7d3d
00000050: 0acc 8d3c 6228 883d c07b e5bd 7d85 b93b
00000060: f146 2f3e 7c9b 6abd 6e85 ea3d 73f7 cc3d
00000070: f551 09be 6896 22be b67b 00be 8ae9 fd3d
00000080: 91ae 363d 61d5 a13d f03d e73c 3427 32bd
00000090: 4b4f 91bd 137a debd 0240 1abc b60f 9abd
000000a0: f000 0e3e 07c8 03be a4f3 66bc 9356 303e
000000b0: 6fbf 80bd a5bc 903c 662e f43c dbf2 703e
000000c0: 6608 863d 1061 7f3d 05b5 dabd 3b51 963d
000000d0: af75 883c 8c15 a0bd 3fd9 773c 6603 11be
000000e0: 57a1 62bb f61d 1f3e 1ead 473c 0b00 b5bd
000000f0: c5cb 83bd dd27 b83d 94f2 d9bd af49 bb3d
00000100: fded b9bd 98da a33d e559 e9bd a040 feba
00000110: d7fc a53c 6172 953e 6a92 91bd 8113 e0bd
00000120: 210c 953d abff f0bb 0bb5 103e 5abc b93d
00000130: 4f36 e2bd e7d9 503d 4f2b b3bd 60fa 863d
00000140: 1968 b33c 6ac4 b33c 76fb 9cbc 0ab5 ee3c
00000150: 4e54 03bd e131 aabd 692e 623b ecad 01bb
00000160: ed6e ea3d 44e9 823d 9f7a 8dbc 0344 fabd
00000170: 958e 8a3d 1fa1 413e 84cc bebd ae65 a3bd
00000180: c701 5a3d 39b4 543d ca70 543c e4ed d0bd
00000190: d000 3a3e df43 02be 14f7 2a39 b662 793d
000001a0: 2976 bebd 4e37 cd3d 3306 12be b912 b2bd
000001b0: 164c dbbd 435c 26bd 55d3 1ebd 82fa 783e
000001c0: 67cb a2bd f424 29bd f28e 1f3d 258f 613d
000001d0: edc4 45bd afc7 173e 03cb bfbd 5a05 503c
000001e0: 3e53 60bc ba94 3d3e 971f 35bd a2dd cc3d
000001f0: 6cac f83c 0731 ab3c 5125 da3c b27a 42bc
00000200: cda2 a63d 8d7d 3e3d f700 dabc fcf7 95ba
00000210: e508 a7be e4e8 39bd cfde 23be edfe 45bb
00000220: 9971 65bd 32e6 40be d75a 9e3d adea 883d
00000230: e7de c63d fa43 3abd 36d3 543d bcf9 a23d
00000240: e6e2 1bbd 4eec 34be 0957 563c 2030 e33c
00000250: 089e febd 375d 2cbc 8cb9 ebbd 0f2f 143c
00000260: 31b1 aabe 1aff 55bc e307 90be e840 9c3d
00000270: e120 91bb 7d76 acbd 66f3 99be 5ab7 98bd
00000280: 51d6 47be dcd0 643c 49d1 75bc 55f4 53bd
00000290: e343 353c 8a08 5e3c 3c29 3b3d 8e0c 823d
000002a0: b9c3 c83c 6d95 5c3d 38a1 783c fa12 d73a
000002b0: f6d0 af3d b894 d7bd 267e 3bbe 7126 d6ba
000002c0: 8f3c 113d 0947 56be 9470 9b3d b351 9bbc
000002d0: b4c0 3abd c1c7 2cbd 8b2a 77be cb4e 663d
000002e0: 0730 863d 4495 a4bd 7fa4 513d c52e 06be
000002f0: 2ca3 83bc 9da8 10be 4d80 ccbc 951a 38bd
00000300: 0f11 b6be 1bc5 92bd c6a1 323e b624 7c3a
00000310: a73f 923c 91fd 9e3d f67c ce3d a7e3 a1bc
00000320: 82d9 0fbd 9fc9 efbd 15c8 9d3d bdda 3e3d
00000330: bc54 59be fc4e 823b c4e8 cf3d 97f4 483d
00000340: bd9f ebbc b0a8 81bc df40 af3d 8cb7 cd3d
00000350: a90f 2abe f817 3fbd bd0e 10be 3f93 aa3d
00000360: b2bb cb3d edfa 78bd 06bd 13be 7652 2a3e
00000370: 0044 9ebc 0f37 81bb 0035 79be bed7 143e
00000380: c34f c5bd 9534 40bc b468 15bc 770e 193e
00000390: 80fc 83be fe9c 68be 976e ae3c 580d 31be
000003a0: 65d2 61be 1613 86be cd95 ff3d fe00 803c
000003b0: 8584 963c 9c3f 94be cd2a f9bd fd61 0fbc
000003c0: c81a e1bc b740 9fbe a5c9 483d 048b dc3b
000003d0: b2a7 033e 0bd0 843d f195 9b3c 8114 3ebd
000003e0: f595 013c 5c8c 583b f500 a2bd 5d62 d53c
000003f0: 404a 4ebe 730d 43be 79a3 05be a3bd fabc
-0.18480538 -0.065004446 0.13651758 0.108261585 -0.046092335 -0.04785172 -0.08916881 0.062916175
0.04613544 0.06565353 -0.12278544 -0.10373387 -0.08624968 0.018496254 0.08971407 -0.054000754
0.063489415 0.021945573 0.15777914 0.06182484 0.017309207 0.066483274 -0.11205244 0.005661665
0.17116906 -0.057277188 0.11451231 0.10008135 -0.1341017 -0.15877688 -0.12547192 0.1239806
0.044600073 0.07902027 0.028227776 -0.04349442 -0.07095202 -0.108631276 -0.009414675 -0.07522528
0.13867545 -0.12869273 -0.014096174 0.17220525 -0.06286513 0.017668078 0.02980728 0.23530142
0.065445706 0.062348425 -0.10679058 0.07339712 0.016657678 -0.0781661 0.015127479 -0.14161453
-0.003458103 0.15538773 0.01218727 -0.08837899 -0.0643535 0.08991978 -0.10641971 0.091449134
-0.09078596 0.08000678 -0.11394099 -0.0019397922 0.020262165 0.29188827 -0.071080044 -0.1094122
0.07277704 -0.0073546967 0.14131562 0.09069128 -0.11045515 0.050989058 -0.08748495 0.06590724
0.021900224 0.021944243 -0.019162875 0.02913906 -0.03206282 -0.08310295 0.0034512526 -0.0019787503
0.11446939 0.06392148 -0.017270384 -0.122200035 0.067654766 0.18909119 -0.09316352 -0.07978378
0.05322435 0.051929686 0.012966344 -0.10201624 0.18164372 -0.12721203 0.00016304507 0.060885154
-0.09299881 0.10020314 -0.14260177 -0.08694977 -0.107078716 -0.04061533 -0.03877576 0.24314311
-0.07948952 -0.041295007 0.038954683 0.055068154 -0.048283506 0.14822267 -0.09364893 0.012696588
-0.0136917215 0.18513766 -0.04421958 0.100032106 0.030355655 0.020897401 0.026629122 -0.011870073
0.081365205 0.046506453 -0.026611788 -0.0011441703 -0.32623973 -0.045388117 -0.16002963 -0.0030211762
-0.05601654 -0.18837813 0.0773217 0.06685386 0.09710484 -0.045474984 0.05195924 0.07957789
-0.038058184 -0.17668268 0.013082274 0.027732909 -0.12432486 -0.010520271 -0.1151 0.009044423
-0.3333831 -0.013061309 -0.28131017 0.076295674 -0.0044289683 -0.08421037 -0.3006851 -0.074568465
-0.19515349 0.013965812 -0.015003511 -0.051746685 0.011063549 0.013551841 0.04569362 0.06350051
0.02450739 0.05385344 0.015175156 0.0016408854 0.08584778 -0.10526413 -0.1830984 -0.0016338361
0.035458144 -0.20925535 0.07589832 -0.018959856 -0.045593932 -0.042182688 -0.24137323 0.056227487
0.06552129 -0.08036283 0.051182266 -0.13103779 -0.016069017 -0.14126821 -0.024963522 -0.044947226
-0.3555989 -0.07166501 0.17444524 0.00096185075 0.017852617 0.07763208 0.10082428 -0.019761873
-0.03511954 -0.11708378 0.07704178 0.046595324 -0.2122373 0.003976701 0.101518184 0.049061384
-0.028762693 -0.015827507 0.08557295 0.100447744 -0.16607536 -0.046653718 -0.14068122 0.08328866
0.099479094 -0.060786176 -0.14427575 0.16633019 -0.019319534 -0.003943331 -0.24336624 0.14535424
-0.09634354 -0.0117312865 -0.009119201 0.14946924 -0.2577858 -0.22716138 0.021292968 -0.17290246
-0.22052915 -0.26186436 0.12479744 0.015625473 0.018373737 -0.2895478 -0.12166367 -0.00875139
-0.02747859 -0.3110406 0.04902043 0.006730439 0.1285694 0.064849935 0.018992396 -0.046406273
0.007909288 0.0033042645 -0.07910339 0.02604788 -0.20145512 -0.19048099 -0.13050641 -0.030608004

model.4.bias f4 [64]
00000000: 1ae4 1e36 9064 17b6 d007 b436 8e05 4136
00000010: 157e 68b7 42a1 d9b6 2e8c 34b5 d261 1f37
00000020: b111 03b7 e5a3 11b5 c8e7 64b5 b2b8 8036
00000030: af40 88b7 a88a 3f38 e62b 87b7 3cf7 45b7
00000040: 069d 6336 f3f3 e935 51d9 e136 b9e4 1537
00000050: 1d53 a536 8888 ba36 41ca 97b7 8ccc eab5
00000060: df3d 8cb7 4bfa 83b6 ebe4 cc36 7506 7ab6
00000070: bc07 9934 2dd3 d8b7 4ab4 2038 b194 3937
00000080: 40fe fb34 aa68 b2b6 942c 42b6 a472 17b7
00000090: fecc 2fb7 ae49 cf37 1aa3 6f37 e0aa c3b5
000000a0: 02d3 2636 37f7 88b6 061d 4537 e9ce 0f37
000000b0: 445e 8b37 405a 5cb4 f2fa aab7 1793 3537
000000c0: c555 4bb8 6383 8237 f0ff c8b4 3f78 18b6
000000d0: ad71 2038 c165 9b37 46b1 79b6 9b07 01b8
000000e0: d1e8 6db7 7d8d dcb7 d858 be36 f74f 6937
000000f0: 9131 26b7 046a a337 4113 16b7 646d e236
2.3676607e-06 -2.2559288e-06 5.3653275e-06 2.8762474e-06 -1.3857633e-05 -6.485877e-06 -6.7259214e-07 9.499914e-06
-7.812328e-06 -5.425521e-07 -8.5273905e-07 3.8361986e-06 -1.6242584e-05 4.5667082e-05 -1.6113696e-05 -1.1799679e-05
3.3917036e-06 1.7430851e-06 6.7308215e-06 8.934346e-06 4.927059e-06 5.5591263e-06 -1.8094785e-05 -1.749389e-06
-1.6718112e-05 -3.933242e-06 6.1063233e-06 -3.7256661e-06 2.8504098e-07 -2.5847543e-05 3.831488e-05 1.1061479e-05
4.6937384e-07 -5.316998e-06 -2.89342e-06 -9.026993e-06 -1.0478541e-05 2.4710633e-05 1.4283485e-05 -1.4578363e-06
2.485875e-06 -4.0818954e-06 1.1748873e-05 8.571639e-06 1.6613987e-05 -2.052193e-07 -2.0382435e-05 1.0822688e-05
-4.847885e-05 1.555839e-05 -3.7439122e-07 -2.2719757e-06 3.825284e-05 1.8524823e-05 -3.7207078e-06 -3.076308e-05
-1.4180508e-05 -2.629193e-05 5.672784e-06 1.39065005e-05 -9.905912e-06 1.9480482e-05 -8.94518e-06 6.7480596e-06

model.5.weight f4 [64]
00000000: 4c06 4c3f 34ec 473f 6d5a 793f 7c7c 0f3f
00000010: a4da 433f 4bb7 793f 4264 483f c2b7 773f
00000020: be45 373f 3e1a e03e bd43 473f 6788 5b3f
00000030: 3a34 2e3f 28b1 533f 4484 453f a51a 3b3f
00000040: 7352 403f 6176 443f 13b7 453f 5533 5a3f
00000050: 4684 4e3f 4e20 583f df81 4a3f bff4 563f
00000060: 453d 4d3f 3d7b 423f d64a 2c3f 797b 513f
00000070: e428 543f 511f 653f 5222 303f 411d 5f3f
00000080: 9d20 4f3f 9204 2c3f 0ef7 5e3f c1c7 613f
00000090: 8a23 4d3f e885 443f 25ed 643f e4da 343f
000000a0: df85 243f 5962 523f 2948 5a3f 2a4f 423f
000000b0: 8f72 513f 0b80 493f 6d2d 3d3f 481f 363f
000000c0: 8e37 533f d45c 433f 2a2b 2c3f 3c03 413f
000000d0: c6ef 373f 3426 493f f1e0 543f 000d 873f
000000e0: 7aa9 3e3f 7a55 853f 191e 3a3f 6b03 373f
000000f0: 0bfb 343f af4a 2c3f 8437 283f a7ad 503f
0.7969711 0.7809479 0.97403604 0.56049323 0.76505494 0.9754531 0.7827798 0.9676477
0.71590793 0.4377002 0.77837735 0.8575501 0.6804844 0.82692194 0.77154946 0.7308753
0.7512581 0.7674313 0.77232474 0.85234576 0.80670583 0.84424293 0.7910442 0.839672
0.80171615 0.75969297 0.6730169 0.8182903 0.82874894 0.8950091 0.6880237 0.8715401
0.8090914 0.67194474 0.87095726 0.88195425 0.80132353 0.76766825 0.89424354 0.706465
0.6426677 0.82181317 0.8526636 0.75902045 0.8181543 0.78711003 0.7389744 0.7114148
0.82506645 0.7631352 0.67253363 0.7539556 0.7185024 0.7857392 0.83155733 1.0550842
0.7447735 1.041671 0.72702175 0.7148959 0.7069556 0.6730146 0.6570971 0.8151497

model.5.bias f4 [64]
00000000: 7fde 80be da6c f2be ac12 29be 0433 b5be
00000010: e50b 253d 59ab 283d 8a3a f33d cbd0 6a3c
00000020: 14b2 a8be e1a8 19be 99b2 99be ae62 f5be
00000030: e641 cfbe 0421 b2be 18a6 dfbe 426b d4be
00000040: 0cae 07bd eb88 1dbd e06a 30be dfb9 ddbd
00000050: 7db8 5dbe 63e4 98bd 50e7 ddbd c1d8 68bc
00000060: 4a4f 94be a766 0bbd e069 d5be c791 bb3d
00000070: 63c5 a5be 9682 853d 3e03 98be 40d0 a33d
00000080: 0b9a bf3d 3683 90be fbb9 c5bd 4a1a 6c3d
00000090: 7a1b 94be 7986 abbe 67bb 16be b083 f8be
000000a0: 067f 14be 1e98 8cbe 6bad 2fbe 0841 803d
000000b0: 353a e7be f1b8 97bd b4a7 bebe 4dc9 99be
000000c0: a927 483d 06eb 89be 3c2b a7be 6e4b b3be
000000d0: 6fa4 d8be f0b2 21be 628f 70be a3cc 92be
000000e0: c645 f8be 2acb a33d b6ce acbe f729 613d
000000f0: 8cf5 c7be f7da 313d b40f d0be 8094 e4be
-0.2516975 -0.47348672 -0.16511029 -0.35390484 0.040294547 0.041179035 0.118764 0.014332007
-0.32948363 -0.15005828 -0.30019072 -0.4792685 -0.40479964 -0.34790814 -0.43681407 -0.4148808
-0.03312497 -0.038460653 -0.1722827 -0.10826468 -0.21652408 -0.07465436 -0.10835135 -0.014211834
-0.28966743 -0.034033444 -0.4168234 0.09158664 -0.32377157 0.06519048 -0.29689974 0.07998705
0.09355553 -0.28225106 -0.096546136 0.05764226 -0.28927213 -0.33501032 -0.14719926 -0.4853797
-0.1450158 -0.27459806 -0.17155997 0.06262404 -0.45161596 -0.07408322 -0.37237322 -0.30036393
0.048865948 -0.2693712 -0.32650173 -0.35018486 -0.42312953 -0.15790915 -0.23492196 -0.2867175
-0.48490733 0.07997735 -0.33751458 0.05497166 -0.39054525 0.04342171 -0.4063698 -0.44644547

model.5.running_mean f4 [64]
00000000: 1deb e6bd 21ab f6be 1b89 213d 445d 8ebe
00000010: 57fa c9be b0ad 7abe f22a 64bd 1cfb 323e
00000020: bc79 17bf f7a1 2d3e b597 9abe 35a3 2bbf
00000030: c036 15bf 1db4 15bf c6fb 08bf 682e efbe
00000040: 3a42 5d3e eb7e 353e cf6d 003e 51b3 71be
00000050: 8f80 84be 0f85 8c3e 6eca ec3d f2b7 2abe
00000060: 6b76 f7be 20d9 743e 349a b13e 5c6d 53be
00000070: a50c 41be 695e 89be 54a1 bcbe 55d6 ccbd
00000080: fa0d 8e3e d710 b1be 47b8 a53d 4009 95be
00000090: 07b0 bbbe f3ff 06bf 2769 4fbe 7ac6 d7be
000000a0: f6d3 52bd d2cc 143e e1ed 2cbe e3fc e93d
000000b0: efd9 22bf ec05 0fbf 586e f1be 2c2e bdbe
000000c0: 454c b1be cc1e 8a3d 6584 aebe bff0 cebe
000000d0: 9ba2 11bf b3dc 51be 3a85 70be f836 e7be
000000e0: 18e4 f6be 247c 8dbd 0479 d2bd 955c 543e
000000f0: 52c9 05bf 5e4f 8e3e c090 15bf 85b7 3abf
-0.11275313 -0.48177436 0.039437395 -0.2780553 -0.39448807 -0.24480319 -0.05570502 0.17478603
-0.59170127 0.16956316 -0.30193868 -0.6704591 -0.58286667 -0.58477956 -0.53509176 -0.46715093
0.21607295 0.17724197 0.12541889 -0.2360356 -0.25879332 0.27445266 0.11562048 -0.16671732
-0.48332533 0.23910952 0.3468796 -0.20647186 -0.1885248 -0.26829842 -0.36841834 -0.10001818
0.27745038 -0.3458316 0.08091789 -0.2910862 -0.36657736 -0.527343 -0.20254956 -0.42143613
-0.051471673 0.14531258 -0.16887619 0.114251874 -0.6361379 -0.5586841 -0.47154498 -0.3694929
-0.34628502 0.06744155 -0.34085384 -0.4041805 -0.5688874 -0.20494346 -0.23488322 -0.45159125
-0.48220897 -0.069084436 -0.10276988 0.20738442 -0.52260315 0.27794927 -0.58423996 -0.7293628

model.5.running_var f4 [64]
00000000: 3879 643f 1ed4 5a3e ca08 173f c33c 943e
00000010: 60c1 f03e 556c fa3e 2ace 163f b03f 003f
00000020: ee7d 1b3f 8c6b 4f3e 6675 653f 55c7 573e
00000030: 7425 1c3f c033 663e d448 273f d990 153f
00000040: 3900 bd3e b83a c13e c6d0 883e a149 333f
00000050: 11ef 1b3f 27ee a43e b71c 0f3f d7c8 263f
00000060: 38f2 5b3f ab23 b23e 4c40 443e a73b fd3e
00000070: b72b 453e ecc3 f13e 13b0 3e3e 3ae6 6d3f
00000080: 5051 f33e a21a 393f 2755 993e 9d74 063f
00000090: 9e13 333f 105b 243f 5ef0 373f af9f f73e
000000a0: a842 223e 8f26 923e 8692 ca3e 1a18 df3e
000000b0: 0370 533e d704 ce3e f679 8e3e ec69 443f
000000c0: a37f 0b3f f071 1d3f c8f7 cd3e 4934 ec3e
000000d0: e689 303f 28b2 df3e 077b d53e 7d1e 833e
000000e0: 23f2 143f dd2d 4d3f fc72 8d3e 726c 913e
000000f0: 4b6d 173f 170d 9f3e 0941 143f 6c25 873e
0.89247465 0.21369979 0.58997786 0.28952608 0.47022533 0.48910776 0.5890833 0.5009718
0.6073903 0.2025587 0.8963226 0.21072133 0.6099465 0.22480679 0.653455 0.58424145
0.36914232 0.3774011 0.26721781 0.70034224 0.6091166 0.32212946 0.5590319 0.6515021
0.8591647 0.34792838 0.19165152 0.49459574 0.19254957 0.4721979 0.18621854 0.9292942
0.47522974 0.72306263 0.2994778 0.5252169 0.6995181 0.6420145 0.71851146 0.48364016
0.1584574 0.28545043 0.39564914 0.43573076 0.20648198 0.40238068 0.27827424 0.76724124
0.54491633 0.6150198 0.40228105 0.4613364 0.68960416 0.4369061 0.41695425 0.25609198
0.5818197 0.80148107 0.2762679 0.2840305 0.5915114 0.31064674 0.57911736 0.26395738

model.8.weight f4 [32, 64]
00000000: 519b 0cbe cc52 023d 21b5 fb3c 708d 8b3d
00000010: 0702 503e fe16 d33d a6a7 bb3d b7c9 853d
00000020: 8e0e b0bb 84f3 d43d ae0a ddbd 1a2e b73c
00000030: da99 93bd a5b9 33bd 0378 6bbe f661 43be
00000040: 7e3c 003e 9143 023c 9ca4 3d3c c5fc 393d
00000050: 89cb 28bc 271f 453e 739c b03c 402e 213e
00000060: f243 2fbe 2635 35bd e0c4 4cbe 8cb9 b13d
00000070: dd1c 713c 334f 2c3e 5fda cf3c b64d 803d
00000080: d7e4 fa3c ac5a 27be 39ad 223d b795 273e
00000090: 5eb0 573b 34e3 c0bd 37b2 96bc b3d9 7dbe
000000a0: 313c 793d d7b2 75bd afd8 bebc fae7 033e
000000b0: b62c f23c 37b1 d13c 5efd ae3c 9528 1ebe
000000c0: 8362 023e e617 913d 0604 acbd dca1 07be
000000d0: 9bf1 51be 9c8f f23b 0a04 123c 2fdf 303d
000000e0: 6fc4 8abe 6eed 693d 509e a8bd ad4d d03c
000000f0: 7a26 81be 9b28 06be bfd0 6fbd 2dc6 78bc
00000100: 33e4 613d c547 553e a206 2abe 6827 05be
00000110: 58e4 f5bc f94a 83bc 251e c0bb 8492 3bbc
00000120: 0508 223d f3a0 ea3c e980 75bc 91b4 6b3e
00000130: f02d 4d3d 9800 053e 5cc1 0e3d 54a8 27be
00000140: de6b 12bd 4db4 3e3d 3c75 0c3e a954 30bd
00000150: d948 14be 4f9a 43bd 1234 703d f060 a53d
00000160: ff49 083e 12e6 5e3c aeef 60bd 54b8 833c
00000170: 3acb 043e 5830 473d 2110 213e 55fe 7a3d
00000180: c277 89bd 2527 18bc 92c4 823d bad3 013d
00000190: f0be 173c 7ad1 403d d8d5 20be 9e0a 9fbd
000001a0: f9af 26be f156 5d3d 7d01 9ebe 2eec 6e3c
000001b0: d51d 993e 135b cd3d 107f c23b d526 ff3c
000001c0: f3d6 673c 921a 07bd a58d 04be 321c acbe
000001d0: 5753 0cbe e2bf 55bc 08ae 5fbe 84aa a73e
000001e0: 3616 92bd a673 90bd 2020 0cbd cb98 6e3d
000001f0: 9008 893d 46e3 3cbd 6d4f 58bd 8daa 803d
00000200: 0113 6e3c faef 3d3e b660 31be 12cb e0bd
00000210: ff08 a5bc 708c 41bd bb18 52bd c9b5 96bd
00000220: 360d 8dbb 6df5 71bc ceb1 07bd d140 693e
00000230: aa2d 1f3d f03e 623e 4ca8 133b e06a 5ebd
00000240: ce9c d33c b3c8 aa3c 7fc8 f23d 7e8b 91be
00000250: e400 efbd 45e9 19be 4b5e ea3c bed9 a33c
00000260: 862c e1bb 4c1d c4bb dcd3 fdbd dc76 cfbc
00000270: a814 9e3d fb87 79bd 3113 983d 3782 91be
00000280: a376 10be 1489 edbc 72b0 99bc c31c 7ebd
00000290: 5e33 2a3d b0c2 a3bd 85d6 84be 7ec2 53bc
000002a0: 2ea2 9dbd 2914 1d3e e43f f8bd 1614 85bd
000002b0: 58b1 493e 33b8 943d 9076 793d 82cc 033e
000002c0: f6dd 0dbd 6443 eb3c cbd4 9cbd 67c6 d7bd
000002d0: 464a 1d3d a465 423d 1035 22be 5c60 8e3e
000002e0: 8280 843d 9efe aabe ae6f ea3d ae20 e7bd
000002f0: 3893 19bd 4635 d2bd 2096 29bd 2f72 0d3e
00000300: 2c0a 29bd 8d64 3f3e 6cbe cbbd a121 213d
00000310: 760f 4dbc 5ed4 7ebd bdf1 afbc 19bb 27bd
00000320: d962 e43c 747c 8d3c 0907 b83d 6536 943e
00000330: 8c55 093d 0f51 d23d d3f9 c63d 343b 4bbe
00000340: 5701 77bd 830c 0bbc 4219 913c 6777 0bbe
00000350: d136 7fbe b78b afbd 8358 6bbb 0bd1 2b3c
00000360: 5628 91bc a0c2 5abc 453c 25bd eb40 163c
00000370: bb89 ee3d 4ece e43c 01f5 153e 779f 2ebd
00000380: fe27 aabc 1be1 423d 4a58 573c fb5b 56bc
00000390: 64bf 143c 2c6a ac3c bcdb 1abe d0a1 073e
000003a0: 9320 0dbe d2b6 533e d26e 4dbe e265 0a3c
000003b0: 60b6 753e aa39 9cbc d828 393d 62b8 37bc
000003c0: e34c 05bd 8f3d cc3c 5240 f2bd 3da4 abbe
000003d0: 1fc8 43bd ac1f bbbc 3c05 66be 6e48 a73e
000003e0: 746c 29bd 1769 19be dfdd 013e 3169 393d
000003f0: 195a 0e3b 2ab4 76bd 7c52 963d 9b97 933d
-0.13731124 0.031817243 0.030726017 0.068140864 0.20313273 0.1030712 0.09162836 0.06532615
-0.005372829 0.103980094 -0.107930526 0.02236085 -0.07207079 -0.043878216 -0.22995 -0.19080338
0.12523076 0.007950679 0.01157489 0.045407075 -0.010302433 0.19250165 0.021558976 0.15740299
-0.17115763 -0.04424014 -0.19996977 0.086779684 0.014716354 0.16827087 0.025372682 0.06264822
0.030626697 -0.16343182 0.03971598 0.16365705 0.003291152 -0.094183356 -0.018395526 -0.24790077
0.06084842 -0.059985008 -0.023296682 0.12881461 0.029562335 0.025597198 0.02136105 -0.15445168
0.12732892 0.070846364 -0.08399205 -0.13245338 -0.20502321 0.0074023735 0.008912096 0.043181594
-0.27102992 0.057111196 -0.08233321 0.025427664 -0.25224668 -0.13101427 -0.058548685 -0.015183968
0.05514927 0.20828159 -0.16604093 -0.13003314 -0.03001611 -0.01602696 -0.0058629685 -0.011448506
0.03955843 0.0286412 -0.014984348 0.230181 0.050092638 0.12988508 0.03485237 -0.16372806
-0.0357474 0.046558667 0.13716596 -0.04304949 -0.14480914 -0.047754582 0.058643408 0.0807513
0.13309477 0.013604658 -0.054916076 0.016079105 0.1296815 0.04863009 0.15728809 0.061277706
-0.06712295 -0.0092866765 0.06385149 0.03169606 0.009261832 0.047074772 -0.15706575 -0.07765697
-0.16278066 0.054037992 -0.3086051 0.014582677 0.29905573 0.10027137 0.005935557 0.031146446
0.014150369 -0.032984324 -0.12944658 -0.3361526 -0.13703667 -0.013046237 -0.21843731 0.3274728
-0.07133143 -0.07053308 -0.034210324 0.058251183 0.06691086 -0.046115182 -0.05281012 0.0628253
0.014530898 0.18548575 -0.17322049 -0.109762326 -0.020145891 -0.047253072 -0.051293116 -0.073588915
-0.0043045534 -0.014767987 -0.033128552 0.22778632 0.038861908 0.22094321 0.0022530733 -0.054301143
0.025831606 0.020847654 0.11854648 -0.28426737 -0.11670092 -0.15030392 0.028609416 0.020001289
-0.0068717627 -0.005984938 -0.123939246 -0.025325231 0.077187836 -0.060920697 0.074255355 -0.2841966
-0.14107756 -0.028996028 -0.018760893 -0.062039148 0.041552894 -0.07996118 -0.25944915 -0.0129247885
-0.07696949 0.15339722 -0.12121561 -0.06497972 0.19696558 0.07261696 0.060904086 0.12870982
-0.034635507 0.028718658 -0.076577745 -0.10535889 0.03840091 0.047460213 -0.15840554 0.2780789
0.064698234 -0.33397382 0.114470825 -0.1128553 -0.037493914 -0.10264067 -0.041402936 0.13813089
-0.041269466 0.18690701 -0.099484295 0.03933871 -0.012515893 -0.062214248 -0.021477574 -0.040949915
0.027879165 0.017271258 0.08985717 0.2894775 0.03352885 0.10269367 0.09715619 -0.19846803
-0.060304012 -0.00848687 0.01771224 -0.13619767 -0.24923255 -0.0857157 -0.0035910911 0.010486851
-0.017719429 -0.013352066 -0.04034068 0.009170751 0.11647364 0.027930405 0.14644243 -0.042632546
-0.020771023 0.04757796 0.013143608 -0.013083453 0.009078834 0.02104672 -0.15122885 0.1324532
-0.13781957 0.20675209 -0.20061806 0.008447142 0.23995352 -0.019070465 0.045204967 -0.011213394
-0.032544028 0.024931697 -0.118286744 -0.3352374 -0.047798272 -0.02284225 -0.22462934 0.32672447
-0.041363195 -0.14981495 0.12682293 0.045266334 0.0021721183 -0.06023041 0.073399514 0.07206651

model.8.bias f4 [32]
00000000: 6078 3d36 220d bbb5 e8c2 99b6 687f 9135
00000010: a827 24b8 409e 0eb6 4045 39b4 b3de bbb7
00000020: 1846 4fb7 400b a8b3 6858 9cb6 5487 dbb6
00000030: 8033 3eb6 e29d 1a37 298a 2db7 6ac7 8b35
00000040: c4b0 afb7 7359 7db7 c8c5 abb5 6f76 7eb7
00000050: 6663 d236 fb17 6636 1c6a d3b7 9b2c 9937
00000060: 497e 7437 904c 8db5 1bdd d1b5 ceda bf37
00000070: aaf2 3e38 8fae d7b7 5552 a037 3e25 3937
2.8233262e-06 -1.3936408e-06 -4.5824454e-06 1.0840422e-06 -3.913758e-05 -2.1251763e-06 -1.725466e-07 -2.239584e-05
-1.2354481e-05 -7.825156e-08 -4.659454e-06 -6.542463e-06 -2.8342183e-06 9.215875e-06 -1.03437715e-05 1.0414344e-06
-2.0943939e-05 -1.5100802e-05 -1.2798055e-06 -1.5167155e-05 6.270059e-06 3.428663e-06 -2.5202571e-05 1.8259792e-05
1.4572936e-05 -1.0527601e-06 -1.5636064e-06 2.2870863e-05 4.552553e-05 -2.5711282e-05 1.9111825e-05 1.103553e-05

model.9.weight f4 [32]
00000000: 0c3f b83f abbf 623f 3e75 5f3f 9e47 603f
00000010: e740 593f d35a a73f 7345 693f 9ae4 b83f
00000020: 1d39 b13f 2f8e ce3f d454 5b3f 23ad 853f
00000030: 7c0a 813f ae70 633f 61cd 5f3f f505 b03f
00000040: 5ff3 a13f faa4 643f a1db 5e3f 2800 af3f
00000050: 219f b03f c179 b93f 4c9a b33f 8c8b b03f
00000060: 9e73 663f 0128 8e3f 0806 af3f 29a5 963f
00000070: a0b8 983f 5a44 633f bf83 a83f 1521 cc3f
1.439424 0.8857371 0.8728827 0.8760928 0.8486466 1.3074592 0.91121596 1.4444764
1.3845555 1.6137141 0.8567631 1.0443462 1.0081325 0.8884381 0.8742276 1.3751818
1.2652396 0.89314234 0.8705388 1.3671923 1.3798562 1.4490281 1.4031463 1.3792586
0.9002017 1.1105958 1.3673716 1.1769153 1.1931343 0.8877617 1.3165206 1.5947596

model.9.bias f4 [32]
00000000: 2e41 0d3f 3afc ddbd cb81 58bd 207b bbbd
00000010: 6051 2bbd 8e67 0b3f a21e d7bc faea 243f
00000020: 15dd 133f 55aa 4b3f d6d0 dabd bdc9 f13e
00000030: 90ba 003f b803 b9bd 2897 7cbd 92dd 173f
00000040: 7cea 133f e9fc b1bd e203 c5bd 06bc 493f
00000050: 4034 043f 7836 293f e960 063f 6421 0d3f
00000060: 1d55 d7bc 836e 0a3f 3486 433f 3835 183f
00000070: 367f 1a3f 9c29 afbd 897e 2b3f ab7c 4b3f
0.5517758 -0.10839124 -0.052858155 -0.091543436 -0.041825652 0.54454887 -0.026259724 0.64421046
0.5775922 0.7955678 -0.106843635 0.47224227 0.5028467 -0.090339124 -0.06166759 0.59322464
0.5777967 -0.08690817 -0.09619881 0.78802526 0.5164223 0.6609874 0.52491623 0.55129075
-0.026285702 0.5407488 0.7637665 0.59456205 0.6035036 -0.08552858 0.6698995 0.79487103

model.9.running_mean f4 [32]
00000000: 67b9 443e b7cb b23d bde5 bbbe b135 65bd
00000010: a84a 0bbf 00f8 c43d 46ba bbbe 746b 263e
00000020: f9a2 a33e 96df d43e 6229 d5be 67c3 693e
00000030: cfce 773e a1ce 0fbf ff3c e2be abb6 0d3e
00000040: 69a8 e03d 08b7 47be 7ff6 8cbe 8afe 353e
00000050: 3e62 7a3e 3413 bb3d f4c3 7b3e a7f6 0f3e
00000060: f635 2abe 3ad1 a53e 6bbf 4a3e 6da0 cb3e
00000070: 834b 693e 80e0 15bf c725 903e d815 813e
0.1921135 0.08730262 -0.36698714 -0.055959407 -0.5441079 0.09617615 -0.36665553 0.16251928
0.31960276 0.41576833 -0.41633135 0.22828446 0.24199985 -0.56174666 -0.4418716 0.13839214
0.10969622 -0.19503415 -0.27531812 0.1777288 0.24451539 0.09134522 0.24586469 0.14058934
-0.16622147 0.3238619 0.19799583 0.39770833 0.22782712 -0.58545685 0.28153822 0.25211978

model.9.running_var f4 [32]
00000000: 6d8e 863f 6301 163f 6418 673f e0cd 103f
00000010: fc69 813f 22b9 753f 29a6 973f 48bb 963f
00000020: 0e64 b33f 9ee5 cb3f fbef 573f 24be e03f
00000030: 9698 e53f f985 6a3f 933c 7a3f 67ec 963f
00000040: 53de 893f e0f1 5e3f 3e15 463f fb1c d13f
00000050: 70f7 453f c87b 673f feb0 843f 06b2 753f
00000060: 0f2f 773f 9a95 0440 f5b4 b53f 87de ff3f
00000070: 2e6c b63f c576 813f 0e26 c33f 6c47 9a3f
1.0512215 0.58595866 0.9027159 0.5656414 1.0110469 0.95985615 1.1847583 1.1775904
1.4014909 1.5929449 0.84350556 1.7558026 1.793719 0.91610676 0.9774868 1.1790894
1.0770973 0.8708782 0.77376163 1.6336969 0.77330685 0.9042325 1.0366514 0.9597477
0.9655618 2.071631 1.4195849 1.9989785 1.4251764 1.011437 1.5245988 1.2053046

model.12.weight f4 [1, 32]
00000000: 7041 47bf 0f0b 343e 7245 ed3d c433 233e
00000010: 639a fd3d 35fe 21bf 9bf9 163e ff4b 36bf
00000020: c638 27bf 178e 37bf 1204 123e 692b 85be
00000030: 51ff 99be d007 ff3d f509 233e a7a6 38bf
00000040: 84d9 15bf 275f 113e 34e5 1c3e 44b7 fabe
00000050: c80c 42bf c10a 39bf 7c6e 4bbf c5fe 47bf
00000060: 714f 0b3e 7c13 89be 4cfa 06bf 046d 89be
00000070: 1a7c eabe 9243 093e 4812 edbe 9b4d 31bf
-0.77834225 0.17582344 0.11585511 0.15937716 0.123829626 -0.63278514 0.14743654 -0.7120971
-0.65321004 -0.71701187 0.14259365 -0.26009682 -0.30077603 0.12452662 0.15921767 -0.7212929
-0.5853503 0.14196454 0.15321809 -0.48967946 -0.7580075 -0.72282034 -0.7946546 -0.7812312
0.13604523 -0.26772678 -0.5272567 -0.26840985 -0.45797807 0.13404682 -0.4630301 -0.6925904
